~/tmp/optimization_guide_model_store/20/C0DAB6922330736D/C62399A623232A82/model.tflite (tflite, 64824 bytes, 5 tensors)

arith.constant f4 [1, 64]
00000000: 95a0 a3be 626e c2bd b7ab adbd 5fbf 91be
00000010: 6961 14be 796b b3bd 9510 1abd db1f e43d
00000020: 4085 a03d 58d4 40be 7035 e5be 52bf 053e
00000030: f0f4 953e 9d1c 6fbe dcc9 653e 4bed dabd
00000040: 6774 62be b9fd e9bd 1881 d93d 0b68 efbc
00000050: 209d 173e 3d33 8c3d 8be7 843e 187c 433d
00000060: 4dd0 2ebe ca92 a8be 935b f4bd 41f7 9c3e
00000070: cb0e 253d 81b3 38be bb00 d93d c3c7 b73e
00000080: a4d8 813e 0a38 e73d 7685 85be 5151 9f3e
00000090: cad7 a03d 59ad e6bb f907 b03e c2e2 b6be
000000a0: 8a6e ae3e 1367 a33e 3046 3b3e f247 24be
000000b0: 3936 c33d 18a8 79be 8340 be3c 2ce9 b9bd
000000c0: a387 96be 671c 53be 00cd cd3e 1267 a23e
000000d0: 58df 5bbe 8316 f3bd eac0 43be 3c52 b3bc
000000e0: cd1d 8f3e 7811 c83e 6b0f 443e ceba 92bd
000000f0: 4a2f d03d 21fa 283e a174 533e c95e a5be
-0.31958452 -0.0949371 -0.08480018 -0.28466317 -0.14490284 -0.08760733 -0.03761347 0.111388884
0.078379154 -0.18831003 -0.44767332 0.13061264 0.29288435 -0.23350759 0.22440284 -0.10689791
-0.22114716 -0.11425347 0.10620326 -0.029224416 0.14806032 0.068457104 0.25957903 0.047725767
-0.17071648 -0.3292449 -0.11931529 0.3065739 0.04029731 -0.18037225 0.105958425 0.35894594
0.25360596 0.112899855 -0.26078385 0.31116727 0.078536585 -0.0070397076 0.34381083 -0.35719877
0.3406871 0.31914577 0.18288493 -0.1604307 0.095318265 -0.24380529 0.023224121 -0.09077677
-0.29400358 -0.20616303 0.40195465 0.3171926 -0.21471918 -0.11869528 -0.1911656 -0.021889798
0.27952424 0.39075828 0.19146506 -0.071645364 0.1016527 0.16501667 0.20649959 -0.32298878

arith.constant1 f4 [64, 128]
00000000: 94b9 323e 2acc 63bd c41c 82bc 3f72 7dbd
00000010: f541 8c3c c1f2 833d 2e65 213e 4c0b 36be
00000020: 062e 10be 9cd7 0bbe aee8 103d a066 3c3e
00000030: 5d75 89bd 1478 a83c 0668 383e 42e8 3e3d
00000040: 10eb fabd c84f 873d a94e bd3d 68c4 6e3d
00000050: ccbd 353e 95a6 e03d b6cb 1bbb 1101 923d
00000060: b692 24bd 660e 293e 12a2 6fbc 59c7 0e3e
00000070: 60ca 243e 4264 173e 3e26 43be edc2 753d
00000080: 4abc 2bbd d8a2 b73c c71b 2cbd c0b0 e2bd
00000090: 5456 a1bd 70ac f0bc c12e 2d3e cd9e 313b
000000a0: f22a ca3a b820 823d ab58 3c3e 456e 173d
000000b0: fdd7 c2bd 085b 6abe d0e6 953b a77d c03d
000000c0: d355 c43d 0767 453e 4ff8 1c3e 4a53 273e
000000d0: 6c36 56be b94f 573e c58b ab3d 3faf a4bd
000000e0: dbfa f2bd fa7a 2fbc 12cc 8bbc 7a45 053e
000000f0: 35ec b9bd 2ccd e7bd ed1a 0dbd 9eab 07be
00000100: 08f4 11bd 5179 aabd bdf1 04be 7bf8 ca3c
00000110: f350 a5bd 4ab8 173d 978c fa3d d5e4 7cbd
00000120: c5a1 093e 9873 3bbb 1acf 643c e490 70bd
00000130: f555 55bd ec4e 8bbd 127d 113e 7e20 bb3d
00000140: dbc2 3d3e 19c8 0bbd ee7c 043e 9749 ccbd
00000150: f229 93bb 16e0 19be 461f 12bd 58ef 13bd
00000160: 3ca6 ecbd 3ba8 733d fcc4 18bd 9d3b ff3d
00000170: 2b3f ca3d 2225 1a3e 1bae 95bd 1d18 0a3d
00000180: 994c 69ba 4c47 7abd 7402 123c 0e20 043e
00000190: 1689 76bc 5d7d 0fbe a1b6 98bd 2504 0dbe
000001a0: 4ca4 46be 9dc7 9abd c54d a53c a873 9f3d
000001b0: 8067 c9bd befa 383e f737 6ebd 9883 5cbc
000001c0: e612 873d f2bf e23c 3520 95bd 48bd 083e
000001d0: 5664 1f3e 6f41 4cbe c890 85bb eb1f 9d3d
000001e0: 9945 2d3e 5c2c 153e e8dc 69bd e50d bc3d
000001f0: 7bc3 9abd e9c0 13be f74c 80bd 97aa 353e
00000200: 8c7f c9bd f60d 9d3d 3215 91bd af31 88bd
00000210: 1b8a c93c d6cc b0bd cfb0 8cbd e13f a83d
00000220: 05e2 9c3d 95bd 943d 4126 bb3d 94c6 913d
00000230: 8bad 35be efbd d2bd 3563 f0bd 8ef2 ea3d
00000240: 00cd 19be bd5b 29be 7330 633d 66ff c03d
00000250: 0c96 3bbe 2bf3 443d b70e 7fbd 73a8 c3bd
00000260: 8938 1cbe 6201 4f3d ed0a 97bc d454 8bbd
00000270: ec57 803c 92b4 1c3d 49d1 cf3a 2be8 a9bc
00000280: 801e 313e dff5 053e 5d84 0bbc 7825 13be
00000290: fae8 bebd f68a b1bc 1b1c 0abd b7f8 b73d
000002a0: 6542 c1bc e36c 1d3e 0539 2bbe 9087 16be
000002b0: 91b6 38bd 302f d0bd aba8 383e 1640 ffbd
000002c0: 9459 b4bc f5ba 16be 54a7 cf3d a253 0ebe
000002d0: ab81 bf3d f415 0c3c ef4d bfbd b45c e0bd
000002e0: f62a bdbc 5a43 d6bd 6ecc b2bc 7c44 adbd
000002f0: 22c3 c63c 9fba c73d 9cd2 ba3d 059c d9bc
00000300: f93a 053d 22c0 153e 17bd d8bc 4bfe 4dbd
00000310: 4cf0 cabd 3fca 17be 21bc 01be dc98 5d3c
00000320: b27d 9b3d de1e fcbd ab40 083d 9492 723d
00000330: 7f92 db3d 8c10 4ebb df84 153e 6314 62bc
00000340: 99b7 ac3d 019b 143e 8709 833d 1feb ce3d
00000350: 0a9d a9bd 70c2 dfbd 9d87 e93d 099b 3a3d
00000360: bd16 dc3d 1422 493d 6019 3a3e 571b 883d
00000370: fd31 613d 0b87 183e b5da 903d 9a03 8d3d
00000380: 3626 20be 677f 143e 4d80 db3d e972 acbd
00000390: aa09 25be f047 1a3d 14a6 fc3d 7421 f6bc
000003a0: 0cf4 1dbe 4677 cdbd 2f81 16be 2aee be3c
000003b0: 7dfd 0b3d 8947 9abd a09f 05be 2290 403d
000003c0: c012 1c3e 4659 2c3d fb08 e43c b9a4 afbd
000003d0: 2662 e13d 0ceb 103e 18f5 9dbd e286 9f3d
000003e0: a048 883d 2cff afbd 7529 8abd 6a40 06be
000003f0: 6d27 7fbd 901e a63a 3756 1dbe 6dce 72bd
0.17453605 -0.055614628 -0.015882857 -0.06187653 0.017121295 0.06442786 0.15761253 -0.17777747
-0.14080057 -0.13656467 0.03537815 0.18398523 -0.067118384 0.02056507 0.18008432 0.046608217
-0.12251866 0.06607014 0.09243519 0.058292776 0.17748183 0.10969273 -0.0023772544 0.0712911
-0.040178977 0.16509399 -0.014626043 0.13943233 0.16092825 0.14784339 -0.19057557 0.06000035
-0.041927613 0.022416517 -0.042018678 -0.11068869 -0.07877794 -0.0293791 0.16912366 0.002710271
0.0015424176 0.06353897 0.18393199 0.036970396 -0.09513853 -0.22886288 0.004574634 0.09398966
0.09586682 0.19277583 0.15329097 0.16340366 -0.20919198 0.21026506 0.08376268 -0.08041238
-0.11864253 -0.010710472 -0.017065082 0.13014784 -0.09078256 -0.1131843 -0.034449507 -0.1324906
-0.035633117 -0.083239205 -0.12982841 0.024776688 -0.080720805 0.037040986 0.12233847 -0.06174167
0.13440616 -0.0028602835 0.0139653925 -0.05873193 -0.05208393 -0.068021625 0.14207867 0.09137057
0.18531363 -0.034126375 0.12938282 -0.09974974 -0.0044910843 -0.15026888 -0.035674356 -0.036116928
-0.11555144 0.05948661 -0.037297234 0.12462542 0.098753296 0.15053228 -0.073085986 0.033714402
-0.00088996586 -0.06110315 0.008911718 0.12902853 -0.015047332 -0.14012666 -0.07456709 -0.13771112
-0.19398612 -0.075576045 0.020178685 0.077857316 -0.09834194 0.180644 -0.05815884 -0.013459109
0.065954015 0.027679417 -0.07281534 0.13353455 0.15565619 -0.19946836 -0.004076097 0.076721035
0.1692108 0.14567703 -0.05709544 0.09182338 -0.07556816 -0.14429058 -0.0626468 0.17740856
-0.09838781 0.076686785 -0.07084121 -0.066501014 0.024601987 -0.08632819 -0.06869661 0.08215309
0.07660297 0.072627224 0.09138156 0.07117954 -0.17741983 -0.10290133 -0.11737672 0.11472045
-0.15019608 -0.16538902 0.055466127 0.094237134 -0.18318957 0.048083466 -0.062269893 -0.095536135
-0.15255941 0.050538428 -0.018437827 -0.06803289 0.015666924 0.038258143 0.0015855219 -0.02074059
0.17296791 0.13082074 -0.008515445 -0.14369762 -0.093217805 -0.021672707 -0.03371821 0.089829855
-0.02359123 0.15373568 -0.1672097 -0.1470015 -0.045095984 -0.1016525 0.18033092 -0.12463395
-0.02201537 -0.14719756 0.10139337 -0.13899091 0.09350904 0.008550156 -0.093410365 -0.10955182
-0.023091774 -0.10462065 -0.021825995 -0.08460328 0.024262968 0.09752392 0.09122202 -0.026563654
0.032526944 0.14624074 -0.026457353 -0.05029134 -0.09909114 -0.14823245 -0.12669422 0.013525214
0.07592334 -0.12310575 0.033264797 0.05922182 0.10721301 -0.0031442968 0.14601468 -0.013798806
0.08433456 0.14512254 0.063983016 0.101034395 -0.08281906 -0.10925758 0.11402819 0.04555801
0.107465245 0.049104765 0.18173742 0.0664584 0.054979313 0.14895265 0.07072965 0.068854526
-0.15639576 0.14501725 0.10717831 -0.08420355 -0.16116968 0.03766626 0.123363644 -0.030045249
-0.15425128 -0.10032515 -0.14697717 0.023306925 0.034177292 -0.075331755 -0.13049173 0.047012456
0.15241528 0.042077325 0.027836313 -0.0857634 0.110050485 0.14152163 -0.077127635 0.07789399
0.06654477 -0.08593592 -0.067461886 -0.1311051 -0.06229346 0.0012673903 -0.1536492 -0.059278894

arith.constant2 f4 [128, 12]
00000000: 812e 75be 7ba3 fa3d 1329 fe3c b7d8 233e
00000010: aa52 a33d a1c9 86bd 142b 55bc 67f6 3cbe
00000020: eccb b63b 8597 0a3e 5bdd ddbd ac8f 3ebe
00000030: da04 3abe cfac 1c3d 7630 afbd c802 0abd
00000040: 9911 d93d 8929 cd3d a96b d93c d65b 32be
00000050: 53a6 1d3e 92dc 043e 630a 203e 55df 813e
00000060: 9251 373d 3aa7 4dbe 3263 88bd d80b babd
00000070: 5457 89bb e2ed 413e 06b1 4fbe 7073 ab3d
00000080: 01a5 8cbc 335a 44bc aa60 c13c d6aa f1bc
00000090: 0c59 31bc 6f45 65bc 07ce 14be bb17 bbbd
000000a0: 243f 3abe a2d3 d8bd 9d82 df3d 2b99 0c3d
000000b0: 76d8 9a3d a8f5 1e3e 150e 1fbb 2504 5b3e
000000c0: 77a6 1a3e ea58 5f3d 5c6b 2d3e 4eae 5bbe
000000d0: c6d5 273e 8901 0a3e b82e e9bc 7050 dbbd
000000e0: 6da8 843d e369 423d bdea 883e 7851 dc3d
000000f0: 0dcd 74bd e3e6 783d 6708 473d 5a9a a13d
00000100: 1de7 70bc 99b7 a73d 1f22 e23c 4dce d83c
00000110: 4f60 073d 6251 053e 46d8 b8bd 30b8 5fbe
00000120: bcfe 48be c8d3 483e 9387 eebc f31d fc3d
00000130: 2242 863c 06d4 35bd 8c1e a23d a59b c73d
00000140: 63de 233e 662f 413e 1dbc 5c3e 8328 c4bb
00000150: b88b cbbd 7910 523e 452c 27be fcfc c0bc
00000160: d29f 5c3e 27fd ca3c 95bf c23c 7495 18bd
00000170: 34e2 cdbd ccd0 0a3e 9164 92bc b921 97bd
00000180: d01d 373e 7961 e73d fd8b 03be aeac 01be
00000190: e699 9c3d 9e31 573d b7ad 0b3e 84c1 01be
000001a0: bc0e 3b3e c13b e43d 116a fabd ffe6 5ebe
000001b0: 8350 b43d ff97 10be ca8a 16be 746e e8bd
000001c0: 982f 103e 5de8 26be d5e6 a4bc e5e7 af3d
000001d0: d8b3 46be e078 073e 1a1a 60bc 0a70 353e
000001e0: 1c50 9bbe 9a4b 6bbd f2ce 19be 64e1 fdbd
000001f0: 7ad6 8d3d d933 c43d 3f4e 2f3d a774 bbbc
00000200: 2429 293d 13d5 a3bd d886 32be 63d7 3f3e
00000210: 1706 1bbe dc26 1b3e 8af7 4a3d f450 10be
00000220: 76a7 0b3b 76c3 19be 1a34 273e 2fa0 5cbd
00000230: 5f48 eebd 86b2 57be 035e b5bd e997 f6bd
00000240: 45ae 3abe 7651 de3b 9d07 353d 4adf 43bd
00000250: 5eee 193d cb94 f9bc 4360 09bd 2283 7f3b
00000260: 1362 d1bd 06d8 e3bc 683e 583d 488b bb3d
00000270: 5ea5 a9bc 3d80 7fbe 85a9 c43d 52c7 4bbe
00000280: 7606 313e 8a43 8c3d e474 383d e596 833d
00000290: 9c96 213c 77c8 bcbd 8767 943c 1b00 863a
000002a0: 96b5 4ebd 69f5 273d cdd4 4ebd 941a 2a3e
000002b0: cf8f f03c 8b24 92bd bdae 24be a19e 9b3d
000002c0: d4c0 143e 134f 7abb 6b7d 8ebd 4c4e f13d
000002d0: aa9c 8a3d 631a 59ba abd2 143e eb14 c6bc
000002e0: 8902 a83d f55b 4cbe 2b6d 083e a75d 693e
000002f0: 0116 4bbd 1565 ecbd b400 ac3d eea1 3fbe
00000300: 7909 413d 6c09 fcbd 3ca2 b9bd f4c9 cbbd
00000310: 636d 5c3e 903d 04be 8a6f 9bbd 6e67 70bd
00000320: 2ca4 9bbc 3f55 ff3d 1dea 253e 7d74 0e3d
00000330: aabd 90bd 084b b3bd f9a4 64be 5a0c e6bd
00000340: 5bf7 f0bd 8a22 a83d 8a0a 063e c50d a7bc
00000350: 991f 70bd 8460 3dbe 0f08 a93d 8af3 36be
00000360: a295 4abe 62c1 acbd 1a10 3f3e 432b 893d
00000370: a7ed 993d bbfa ccbc 1e11 dcbd 569a 683d
00000380: e786 6cbb fcf7 543e 40ec b23a b355 c93b
00000390: e0fe fdbd c246 1d3d ce2c efbc 0af3 883d
000003a0: b417 17be 1fda 3cbe 80ca 433d f464 d0bd
000003b0: 21f7 a13d c04a 013d 528a 19be 844e 353e
000003c0: b5b3 e2bc a568 16be 392b c9bd df88 103d
000003d0: 9abe c93d 5127 16bc 5c69 c03d 9c7c b4bd
000003e0: 165e a0bd 21fa 563c 9518 c03c 95db 8f3e
000003f0: 14a3 73bd 16ca 383e 6907 2abe 7475 f03d
-0.23943521 0.12238213 0.031025445 0.16000639 0.07974751 -0.065814264 -0.013010759 -0.1845337
0.0055785086 0.13534363 -0.10833236 -0.18609494 -0.18165913 0.03825074 -0.08554165 -0.03369406
0.105990596 0.10017688 0.026540594 -0.17417845 0.15395479 0.12974766 0.15628962 0.253657
0.044755526 -0.20083323 -0.06659545 -0.0908429 -0.0041913185 0.18938401 -0.20282373 0.08371627
-0.017168524 -0.011984396 0.023605663 -0.029500406 -0.010824453 -0.013993605 -0.14531718 -0.091353856
-0.18188149 -0.10587241 0.109135844 0.03432576 0.07560818 0.15523398 -0.0024269868 0.213883
0.15102564 0.054528154 0.16935486 -0.2145321 0.16390142 0.13477148 -0.02846466 -0.107087016
0.06477437 0.047464263 0.2674159 0.107577264 -0.059765864 0.060767066 0.048591997 0.07890768
-0.014703539 0.08189315 0.02760416 0.02646556 0.03305083 0.13019326 -0.09025626 -0.21847606
-0.19628423 0.19612038 -0.029117381 0.123104 0.016388956 -0.044391654 0.079159826 0.09746484
0.16002803 0.18865737 0.21556135 -0.0059862747 -0.099387586 0.20514096 -0.16325481 -0.023558132
0.21545342 0.024778916 0.023772994 -0.037251905 -0.100529104 0.13556212 -0.01787022 -0.07379479
0.17882466 0.11297888 -0.1284637 -0.12663528 0.07646541 0.052537553 0.13640486 -0.12671477
0.1826734 0.1114421 -0.12227262 -0.21767806 0.08804419 -0.14120482 -0.14701381 -0.11349192
0.14080656 -0.16299577 -0.0201296 0.08589152 -0.19404542 0.13229704 -0.013678098 0.17718521
-0.30334556 -0.057445146 -0.1502035 -0.123965055 0.06925674 0.09580202 0.04279923 -0.022882773
0.041299 -0.07999625 -0.17434251 0.18734507 -0.15139042 0.15151542 0.049552478 -0.14093381
0.0021309531 -0.15015969 0.16328469 -0.0538637 -0.116348974 -0.21064195 -0.08855822 -0.12040693
-0.18230541 0.0067846132 0.044196714 -0.047820367 0.03758084 -0.030466458 -0.033539068 0.0038988073
-0.10223784 -0.027812969 0.05279389 0.09157425 -0.020708736 -0.24951263 0.09602646 -0.19900253
0.17287621 0.068488196 0.04503335 0.06425265 0.009862568 -0.09217923 0.018115772 0.001022342
-0.050466143 0.041005526 -0.05049591 0.16611701 0.029365448 -0.07135876 -0.16082282 0.075986154
0.14526683 -0.0038194105 -0.06957515 0.11782512 0.067681625 -0.0008281825 0.14533488 -0.024179896
0.082036085 -0.19956954 0.13322894 0.22789632 -0.04958153 -0.11542717 0.083985716 -0.18714115
0.047128174 -0.123064846 -0.09064147 -0.09950629 0.21526103 -0.12914109 -0.07589634 -0.05869239
-0.018999182 0.12467431 0.16202588 0.03477906 -0.070674255 -0.087545455 -0.22328557 -0.112328246
-0.11765929 0.08209713 0.13089958 -0.020392308 -0.058623884 -0.18493849 0.0825349 -0.1786634
-0.19783643 -0.08435322 0.18658486 0.06697705 0.07516032 -0.025021901 -0.10745452 0.05678781
-0.003609115 0.20797724 0.001365073 0.0061442493 -0.12402129 0.038397558 -0.02919617 0.06686981
-0.14755136 -0.18442582 0.04780054 -0.10175505 0.07908464 0.031565428 -0.14994171 0.17705733
-0.027673582 -0.14688356 -0.09822697 0.03528678 0.098508075 -0.009164647 0.09395096 -0.0881283
-0.078304455 0.013121159 0.023449222 0.28097215 -0.059481695 0.1804584 -0.16604389 0.117411524

arith.constant29 f4 [64]
00000000: 8760 99bb 3877 08bc 9171 a33b eeed 86bd
00000010: 3573 96bc 513c d53c 7cc3 9bbc 1e4d 473a
00000020: 0f72 413c 2ea6 0fbc 048e b8bc 439e f9bc
00000030: a9f2 b73d 0280 7abc 1357 24bc 2a1c 07bd
00000040: 5156 67bd aec3 1ebd 5d6a d73c 81bb c2ba
00000050: 53d0 e03c 6d9c 473b 6b00 993d 758a 13bc
00000060: 954d 81bd 36e3 e1bc cc38 7fbd 2713 aa3d
00000070: 1678 c23b 7ee9 b1bc 85c4 873b b2de 813d
00000080: 185d 733d 1666 bfbd 0254 81bc dd1f 753d
00000090: 2e1c e8ba fe19 023b 9ac2 ad3d e7bd 22bd
000000a0: 0906 6f3d d4ed c73c e258 e43c 0476 b6bc
000000b0: 77ee 6bbd 5b6d 81bc adf4 253c d76f e8bc
000000c0: b730 3abd dc8e 45bd b88a acbd c414 673d
000000d0: a1e6 96bc 1536 f13b 1e68 003c aeba b4bc
000000e0: f04c b8bc e8d9 bd3d 9490 0abc f404 69bb
000000f0: 8acf 0abc febc a23c 371e 323d 5d64 82bd
-0.0046806964 -0.008329205 0.0049879034 -0.0658835 -0.018365482 0.026029738 -0.019014113 0.0007602739
0.011806979 -0.008767648 -0.022528656 -0.030470973 0.089818306 -0.0152893085 -0.010030526 -0.032985844
-0.056478802 -0.038760833 0.026295835 -0.0014856906 0.027443087 0.0030458227 0.07470783 -0.009005179
-0.06313626 -0.027574163 -0.062310025 0.08304434 0.0059347255 -0.021717783 0.0041433 0.06341304
0.059414953 -0.09345643 -0.015787128 0.05984484 -0.0017708594 0.0019851918 0.08484383 -0.039731886
0.058355365 0.024405397 0.027874414 -0.022273071 -0.057600465 -0.015799215 0.010129136 -0.028373642
-0.045456614 -0.048231944 -0.08424896 0.056416288 -0.01842052 0.0073611834 0.0078373235 -0.022061672
-0.022497624 0.09270078 -0.008457322 -0.003555593 -0.008472333 0.01986551 0.043485846 -0.06366799

arith.constant30 f4 [128]
00000000: 81e9 4bbd 5bf2 84bc b73e 1cbd a9e1 c5bd
00000010: 03c7 0e3e 5954 ac3c 75a0 a23b 0a38 9a3c
00000020: 69bc 15bd 4e9e f9bc 21d0 623c c261 63bd
00000030: d2f1 ae3c 4ee2 80bd 4325 5bbc 71a7 3dbb
00000040: 0a72 7cbc a257 e03c 291d 92bd 2aad 61bd
00000050: 6ae7 723a 2a6c ecbd 4a99 b7ba 1402 9d3c
00000060: 785f 7f3b 6913 713c b22c 00bd cf85 cbbc
00000070: 2e69 e83c b1d4 83bb d7e6 62be 959a 75bc
00000080: 9afa 003b 1f78 babb 4969 eb3b b317 983c
00000090: b4f1 06bc fd88 0bbd e96a dfbb 2e5b 543d
000000a0: be0f 3b3d dca9 603d 37d4 83bd 2d45 8c3d
000000b0: 837a b83d 3e43 aabd e5ec 2fbd 0ddc 31bd
000000c0: fa2b 2bbc 98c9 243c 4cf0 a5bc b93a 9fbd
000000d0: 8225 59bd bf75 7f3d 10f4 45bd 703e 0f3d
000000e0: c8f4 2b3d 208b 113c d32f b33d b90d e1bd
000000f0: db73 ff3c e0e8 22bc dea3 e93c df09 f8bc
00000100: 486c 8bbd 8b8e e2bc a1b9 0dbd 4b09 ed3c
00000110: 0ba1 34bd 557e 8ebd 5a40 f8bb ca3c 4d3c
00000120: ac2f d9bd b09b 32bd ab51 093d 1687 93bd
00000130: 6248 f33c f31b 21be a1b7 a8bd edc5 12bd
00000140: 3eb7 5bbc 8411 c93c b7b9 1c3d 2a92 7f3d
00000150: fc20 49bd 950f ac3c d140 2cbd 7a4e 543d
00000160: b497 d6bd 1ab9 463d 4dd2 9ebd 0637 91bc
00000170: 8907 67bd 49d4 a4bb fec3 68bd 98aa 27bb
00000180: 21be ba3c c330 4e3c 1e2f 683c 224e c03c
00000190: 4668 cdbc da58 ce3c ac57 27bd 9f95 a0bd
000001a0: a629 cf3c df50 673c 06f1 133d 0d8c af3c
000001b0: 6172 c7ba 9439 7abd 9d79 dbbc 607a 533d
000001c0: 1d17 6abd 284c 9cbc 7bf3 d03c 2abe edbb
000001d0: 9b02 a4bc 8e62 20bc 052e 44bd ff28 06bd
000001e0: 7669 94bd e7bf 83bc 585e c23c 7c07 d8bb
000001f0: e7b1 61bd 3726 33bd 25ab 623d f5ef 493c
-0.049783234 -0.016228845 -0.038145747 -0.09662182 0.13943104 0.021036314 0.0049629756 0.01882555
-0.036556635 -0.030470993 0.013843567 -0.05551315 0.021355543 -0.06293164 -0.013375583 -0.0028938914
-0.015408048 0.027385537 -0.07134468 -0.055096783 0.0009266051 -0.11544068 -0.0014007476 0.01916603
0.0038966816 0.0147141 -0.031292625 -0.024844078 0.028370466 -0.0040231575 -0.22158371 -0.0149904685
0.001968062 -0.005690589 0.007184182 0.018565988 -0.008236337 -0.03406619 -0.0068181646 0.05184477
0.04566931 0.05484949 -0.06436961 0.06849132 0.09007742 -0.08313607 -0.04295053 -0.043422747
-0.010447497 0.010057829 -0.020256184 -0.07774872 -0.053014286 0.06236815 -0.04832846 0.034971654
0.04198149 0.008883268 0.08749356 -0.109889455 0.031183174 -0.009943217 0.02852052 -0.030278144
-0.068077624 -0.02765586 -0.034600858 0.028935095 -0.044098895 -0.0695769 -0.0075760307 0.0125267
-0.10604796 -0.043605506 0.03352515 -0.072035 0.0296976 -0.15733318 -0.082381494 -0.035833288
-0.013410388 0.024544485 0.03826305 0.062395252 -0.049103722 0.021003524 -0.042054 0.051832654
-0.10478154 0.04851637 -0.077549554 -0.017726433 -0.05640367 -0.005030189 -0.056827538 -0.002558386
0.022795739 0.012584868 0.01417139 0.023474757 -0.025074136 0.025188852 -0.040855095 -0.07841038
0.025288414 0.014118402 0.03611853 0.021429086 -0.0015216583 -0.061090067 -0.026791388 0.051630378
-0.05715095 -0.019079283 0.025506726 -0.0072553353 -0.020020774 -0.009789122 -0.04789545 -0.03275394
-0.072466776 -0.016082717 0.023726627 -0.006592689 -0.0551013 -0.043737616 0.055338997 0.012325277
